checkpoint/test.pth (torch, 89783 bytes, 22 tensors)

encoder_linear1.weight f4 [64, 3]
000000 af 0d 1b be d1 63 06 be 7d 41 00 3e 45 a6 b1 bd
       -0.15141939 -0.13124014 0.12524982 -0.086742915
000010 fd f5 40 be 3c 03 44 be 25 bb 3f 3e 8b 2a df 3d
       -0.18843837 -0.19141859 0.18723734 0.10896786
000020 95 b9 3c 3d 7b 46 26 be 12 ae 68 bd 45 36 d2 3e
       0.046075422 -0.16237824 -0.05680663 0.4105703
000030 66 d0 cc 3e 1c dc 27 be d8 27 03 bd 73 98 6c be
       0.40002745 -0.16392559 -0.03202042 -0.2310503
000040 43 f8 ad 3d c8 5a 75 be 3f 88 84 3e 32 8b e9 3c
       0.08494618 -0.23960412 0.25885198 0.028508756
000050 55 72 aa 3e 53 9b 03 3c 46 a0 0f 3e f5 5c 58 be
       0.33290353 0.008032638 0.14025983 -0.2112921
000060 d9 6b 86 3e 9e 41 1f 3e 8c 08 f9 3d 08 2b 3f 3e
       0.26254156 0.15552375 0.12159833 0.18668759
000070 d0 d9 4a be 19 72 e6 bd 80 2f 6a 3a 0f 8f 9f bd
       -0.19809651 -0.11252231 0.00089334697 -0.07790958
000080 c5 5a 8b be b3 a7 4f 3e 8e fc da 3d 8f 52 4e 3d
       -0.2721769 0.20278816 0.10692702 0.050371703
000090 8f 24 2e 3e 65 83 39 3e 4a f9 32 3e 2d ab d7 3c
       0.17006133 0.1811653 0.17477909 0.02632674
0000a0 ac 93 cb bd a8 67 44 be 0c 69 27 be 3a 7f 37 bd
       -0.099402755 -0.19180167 -0.16348666 -0.044799067
0000b0 d6 7c 2c be bd d2 18 be c1 3f 6d be 26 e2 7b be
       -0.16844496 -0.1492414 -0.23168851 -0.24597988
0000c0 91 d7 6a be fc 27 c5 3e 47 fd 12 be 3a e6 4c bd
       -0.22933795 0.38507068 -0.1435443 -0.05002425
0000d0 8a d8 20 bd f7 e3 d6 3d 19 72 51 3c 81 8e 3d 3c
       -0.039269008 0.104926996 0.012783551 0.01156962
0000e0 5d 6b 30 3e f1 05 fd 3d cb 05 d6 3d 63 d6 b6 be
       0.17228456 0.12354649 0.10450324 -0.3571044
0000f0 a6 11 b6 3c 19 19 94 bd 2d 54 00 be 8d 5b 09 be
       0.022225212 -0.072313495 -0.1253211 -0.1341383
000100 09 d6 43 3d 5a ec a2 bb 3f ce b5 3e 59 c3 1b 3d
       0.04781154 -0.004972023 0.35508916 0.038028095
000110 58 67 be 3e 10 45 44 3d d9 ac 13 bd 84 c1 75 3d
       0.3718822 0.047917426 -0.036053512 0.059999004
000120 8b b9 1d 3e 11 b6 d1 3c 7e a4 25 3e b8 27 37 bd
       0.1540281 0.025599511 0.1617603 -0.044715613
000130 e7 76 1c 3e 1b d0 83 3e e0 24 cc 3d 8c 0a 00 be
       0.15279733 0.2574471 0.09967971 -0.12504023
000140 b2 f4 b1 bc b8 04 bc 3d d4 32 d1 3c 05 d4 5e be
       -0.021723125 0.091805875 0.025536932 -0.21760567
000150 4c 3f 9d 3c 68 b5 ad 3d c9 5d 80 be 07 9c a0 3d
       0.019195221 0.08481866 -0.25071552 0.0784226
000160 69 47 28 bc 54 77 84 be f7 b5 a4 3d 8e 47 51 bc
       -0.010270932 -0.2587229 0.080425195 -0.012773408
000170 a1 42 cf 3c 7a 8a fa be 8b e8 a1 bd 5f 4e 02 3d
       0.025300326 -0.48933774 -0.07905682 0.03181302
000180 39 d4 d3 3e ec be 40 bd 45 69 fc bd 7b f5 53 3d
       0.4137285 -0.047057077 -0.12324766 0.05174778
000190 83 83 7a be 43 82 92 bd 7b 6f a0 3d a4 32 b7 3e
       -0.2446423 -0.07153752 0.07833763 0.35780823
0001a0 f7 99 25 3e 96 b8 73 bd 2c 52 a0 be 8e 60 3a be
       0.16172014 -0.059502207 -0.31312692 -0.18200895
0001b0 21 7b 86 3d c5 d3 97 be e1 91 4b bd 27 13 25 3d
       0.06566454 -0.29653755 -0.049699668 0.04030147
0001c0 5e f2 fd bc 6c e3 14 3e 43 5a ce be 90 9f 8f be
       -0.030999359 0.1453988 -0.4030324 -0.28051424
0001d0 bf 39 ce 3d 25 5c d9 3d b3 ec 08 3d 3b a7 d2 be
       0.10069608 0.10613278 0.03342886 -0.41143212
0001e0 a5 93 ef 3c 65 51 c5 bc 6a 4c 88 3a a3 6b ac be
       0.029245207 -0.024086663 0.001039875 -0.3367587
0001f0 b4 25 f3 bd b7 b3 86 bd 29 61 4e 3d 4f 6c d7 3e
       -0.11872426 -0.06577247 0.050385628 0.4207482
000200 ea 1b 84 3d d3 f6 cb bd f8 f0 4a bd c7 84 53 be
       0.06450637 -0.09959187 -0.049546212 -0.2065612
000210 ee fd 4d bd e9 c7 5e be 6c a8 a3 bd f0 63 91 bd
       -0.050290994 -0.21755947 -0.07991108 -0.0709914
000220 ff f8 85 bd 7e ea f3 3d 6a 51 06 3d 82 c1 0b 3e
       -0.06541633 0.1190996 0.032792486 0.13648036
000230 92 d7 4e be cb 4e fd 3d 88 1e 77 be 0f 45 0c 3e
       -0.20199421 0.12368544 -0.2413274 0.13698219
000240 c3 90 94 bd f5 34 9c 3e fa cd a5 3e f2 4b fe 3b
       -0.072541736 0.30509153 0.3238371 0.007760518
000250 f4 8c a4 bd 80 6f 56 be 73 71 50 3e d9 1b f3 3d
       -0.08034697 -0.20940971 0.20355777 0.11870546
000260 d8 a5 ba be 91 26 12 bd 7d a1 12 3e 6e 9a 08 3e
       -0.36454654 -0.03568131 0.14319415 0.1334016
000270 41 a4 83 be 0f 14 82 3d f1 e2 eb 3d 76 eb 82 be
       -0.25711253 0.06351482 0.11517895 -0.25570267
000280 c8 a0 41 3d 39 18 11 3e 66 d5 5c be 40 bb 20 3e
       0.047272474 0.14169396 -0.2156578 0.1569643
000290 76 6b f2 be 9f 68 c4 bd e3 ae bc 3c 08 6b 49 be
       -0.4734761 -0.095902674 0.023032611 -0.19669735
0002a0 c8 c2 9a be 64 83 6a 3e 16 c4 6a bd d2 69 ee bd
       -0.3022673 0.22901684 -0.05731591 -0.116412774
0002b0 fd 22 df bd 33 02 f8 bd bb 45 e0 bd 48 12 1e 3e
       -0.10895345 -0.121097945 -0.109508 0.15436661
0002c0 09 9d ed bd e8 13 81 bc 98 04 27 3e 77 e5 96 bd
       -0.11602218 -0.015756562 0.16310346 -0.07367986
0002d0 28 eb 58 be 3c 2f 48 3e 02 06 4a be f8 e5 8e bc
       -0.21183455 0.19549268 -0.19728854 -0.017443642
0002e0 e2 f4 b3 bd 74 10 0c 3e 4f e9 af be fb 14 d3 3c
       -0.08786942 0.13678151 -0.34357688 0.02576684
0002f0 99 e3 80 bd 55 86 a1 be e8 af 4b bd 6a 58 95 bd
       -0.06293411 -0.315478 -0.049728304 -0.07292254

encoder_linear1.bias f4 [64]
000000 b7 06 17 3c a5 74 3e 3c b9 ed 9d bc 3a 36 60 3c
       0.00921791 0.01162449 -0.019278394 0.013684804
000010 7a 76 9b 3b ec 7f 97 bb 9f dc 99 3c c3 7c 18 3a
       0.004744348 -0.004623404 0.018781958 0.0005816931
000020 97 25 ba 3c 4d 6a 3d bc ca f9 87 3b 39 58 a3 3c
       0.022723002 -0.011560989 0.00414965 0.019939529
000030 2d 81 4b 3b 1a d4 47 3c a2 1f 37 bc 29 e1 ca bb
       0.0031052337 0.012196565 -0.011176975 -0.006191392
000040 9b 23 b3 3b c1 e1 4a 3c dc a5 c6 3c 3e 65 3f 3c
       0.005466891 0.0123829255 0.02424901 0.011681853
000050 52 1e f3 bb 27 30 07 3c 20 db e6 3c 12 d4 8f 3b
       -0.007419386 0.0082512265 0.028180659 0.0043892944
000060 4a e0 24 bc 97 e5 aa 3c 68 58 87 3c c4 4f 99 3b
       -0.01006324 0.02086143 0.016521648 0.0046786983
000070 e0 b5 b9 b8 11 da a7 3b 17 b4 c5 3c b6 4b 6a bc
       -8.855364e-05 0.005122431 0.024133725 -0.014300277
000080 f0 b0 9f 3b a6 2b a9 3c bc 01 bf 3c 0f d7 df bb
       0.0048733875 0.020650696 0.023316257 -0.006831057
000090 e5 c0 55 3c bb ce b7 3c 04 a5 89 3c ea 8c 6d bb
       0.013046478 0.022437444 0.016802318 -0.0036247321
0000a0 55 61 a3 3c 8c 85 0c bc 14 b7 e2 3a 8e 8a ee 3b
       0.019943872 -0.008576762 0.0017296993 0.0072797006
0000b0 9f a7 79 bc 41 36 95 3c d4 60 4e bc dd 82 b4 bc
       -0.015237718 0.018214347 -0.012596328 -0.022035057
0000c0 18 ea 03 3c ca d8 17 3c 15 20 bf 3b f4 98 ae 3c
       0.008051418 0.009267995 0.005832682 0.021313168
0000d0 58 af 9e bb 17 ef c0 bb f9 3c a1 3b 31 3e 7b 3b
       -0.00484268 -0.0058878767 0.0049205986 0.003833663
0000e0 96 3d 23 3c 9a 57 60 3c c7 a5 97 3b fa 4b 30 bc
       0.009963414 0.013692761 0.0046279165 -0.010760302
0000f0 cb 3e fd 3b 0a 0d 2b bc de 5a 87 3c 37 aa 22 bc
       0.007728433 -0.0104401205 0.016522821 -0.009928278

encoder_linear2.weight f4 [64, 64]
000000 1e 1d 47 bd 9e 18 20 3d a8 32 69 bd 5a 02 1d 3e
       -0.048611753 0.039085977 -0.056933075 0.15332928
000010 db dd 39 bd 29 4d ec bd 10 81 60 3d 33 b4 29 3d
       -0.045377593 -0.11538155 0.054810584 0.041431617
000020 93 ba bc bc 79 34 b3 bc 3c 88 da bd 5a dc 08 3e
       -0.023038184 -0.021875607 -0.10670516 0.13365307
000030 98 cc d3 3d 9b ac ba 3d 6d f9 6c 3d 73 2f 44 3e
       0.103417575 0.09114953 0.05785506 0.19158725
000040 eb 27 01 3e 46 5c 9e 3d 60 3c 19 be 16 66 a2 bd
       0.12612884 0.077324435 -0.14964437 -0.079296276
000050 49 7a d0 bd 57 38 41 3e 88 22 d7 3c be f9 32 3d
       -0.10179574 0.18869148 0.026261583 0.043695204
000060 a3 b0 8d 3d 86 f5 2d 3e c6 0b 10 bd 08 4f 2f 3e
       0.069184564 0.16988191 -0.035167478 0.17119992
000070 da 23 05 3e 01 ee 24 be 79 63 3d 3e 6b 26 ee 3c
       0.13001958 -0.16106416 0.18494977 0.029071053
000080 d8 16 15 3e 1d 7e 21 bd 8f ff d9 bc b3 0d 0c be
       0.14559495 -0.03942691 -0.026611118 -0.13677101
000090 8d 1f 6b 3d 3e 2f 61 3e 05 22 84 bd bd 1d 2d be
       0.057403136 0.21990678 -0.06451801 -0.16905876
0000a0 9a aa 4c 3d 22 bc a1 3c 9e 04 29 3c e8 df 58 be
       0.049967386 0.019743029 0.010316042 -0.21179163
0000b0 8e e1 2d bb c6 6a 74 3c 72 57 36 bd 3c f0 2d bd
       -0.0026532146 0.014918035 -0.044516988 -0.042465433
0000c0 77 15 71 3e 48 45 b0 3d a4 7f 39 bd 92 db 12 be
       0.23543344 0.08606964 -0.045287743 -0.14341572
0000d0 11 6e f7 bc 5a 4f 40 bd 45 1b d4 3d eb 46 60 bc
       -0.030203851 -0.046950676 0.10356764 -0.013688783
0000e0 69 af af 3d f7 eb bd bd 0d c1 12 be eb d0 96 bd
       0.08578379 -0.09273522 -0.14331456 -0.07364067
0000f0 54 58 18 be d8 06 0a bd ea df bf bd 96 f3 43 bc
       -0.14877445 -0.033697933 -0.0936888 -0.011959931
000100 55 2e c3 3d 54 b1 82 bd a1 c8 50 3d df ba 08 3d
       0.095303215 -0.06381479 0.050972585 0.03338134
000110 29 6f 9f 3a df 14 8e bc e6 7b 04 be b7 93 87 3c
       0.0012163866 -0.017343936 -0.12937889 0.016549928
000120 1f de 64 3d f7 68 1a 3e 56 b8 f8 bd a1 70 9d bd
       0.055875894 0.15079103 -0.12144534 -0.07687498
000130 76 38 50 bc 98 b5 d9 bd d0 f8 e9 3c b3 03 5a bb
       -0.012708774 -0.106303394 0.028561026 -0.0033266365
000140 87 2b eb 3d 67 cd d6 bd 53 19 59 3d 3f 01 af 3e
       0.114829116 -0.10488396 0.053002667 0.34180638
000150 69 e6 5c bd 08 d6 97 3d 15 a5 0d bd 4d b1 06 bd
       -0.053930674 0.0741387 -0.034581263 -0.03288393
000160 94 ea 80 3e dd 93 5e be 8a f1 fb 3d 8a 91 a9 bb
       0.2517897 -0.21736093 0.12301929 -0.0051748203
000170 c0 fd 97 bc 26 38 c2 bc b1 d0 54 3d 5b ec 34 3e
       -0.018553615 -0.023708414 0.051956836 0.17668287
000180 b6 99 80 3b 7d 3a 9a bc 39 aa 15 3d 8c 23 f1 3d
       0.003924574 -0.018826718 0.03653929 0.11774358
000190 23 64 d1 3d 31 64 09 3e 08 25 19 be aa fe ce 3c
       0.10224178 0.13417126 -0.14955533 0.025267918
0001a0 25 a5 c5 3d 54 5f 19 bd 91 16 b8 3d a7 15 76 bc
       0.096506394 -0.037444428 0.08988679 -0.015019811
0001b0 0e a5 2c bd 76 b7 6b be d9 d4 22 3e 39 22 53 bd
       -0.042149596 -0.23019204 0.15901507 -0.05154631
0001c0 ad 64 f5 3c 9b 03 03 3e 1e d1 ee bb c0 93 01 3d
       0.029955233 0.12794344 -0.0072881123 0.031635046
0001d0 12 f0 d9 3d b4 c6 af 3e c4 ca b2 3d 99 d1 34 bd
       0.10641493 0.34331286 0.08730081 -0.0441452
0001e0 07 e6 8d 3d 1f 06 8b bd d8 b0 66 bd 8d 14 1a 3e
       0.0692864 -0.06788277 -0.056320995 0.15046902
0001f0 1f 4c e5 bb 0c 4f b5 3d 7b e5 91 3d 71 ba a9 3c
       -0.0069975997 0.088529676 0.07123848 0.020718785
000200 74 d2 9a bd 7a ba 0b be 36 95 12 be b5 3c 67 3e
       -0.07559672 -0.13645354 -0.14314732 0.22581752
000210 a3 48 d7 bd 6c bf eb 3d 8d 8d e4 3d 18 44 3a 3e
       -0.10511901 0.1151112 0.11159811 0.18190038
000220 1b e5 ed 3d e7 74 45 bd 88 e4 dd 3d f3 68 69 be
       0.11615964 -0.04820719 0.108346045 -0.22793941
000230 3b 1c e9 bd 64 2f 86 be 4d e4 70 3d f9 cf 16 be
       -0.11382338 -0.2620803 0.058811475 -0.14727773
000240 ef 2a 90 3d bf ce 77 3d f2 d7 e1 3d 68 96 39 bb
       0.07039439 0.060499903 0.110275164 -0.002831841
000250 f5 4a 50 bd 95 7f 48 3e 13 68 0f 3e ed f6 12 3e
       -0.050852735 0.19579919 0.14004545 0.14352007
000260 65 cd ab bd a2 f3 8f 3d 47 14 b4 3d 21 93 4c 3d
       -0.08388785 0.07028891 0.0879293 0.049945
000270 dd 6a a4 3d 48 16 4c be 89 87 3b 3e 0c 94 22 bd
       0.08028195 -0.19930375 0.18313421 -0.03969197
000280 85 2e 27 be b7 64 79 3c d4 29 e7 bc 44 dc 92 3d
       -0.1632634 0.015221766 -0.028218187 0.071709186
000290 e0 cc fb 3d d8 b4 fd bd 72 08 b3 bd e4 51 5b 3d
       0.12294936 -0.12388009 -0.08741845 0.053544894
0002a0 e7 e1 d1 3d 28 71 8f bd fb ee 23 3e 51 4f 68 bd
       0.102481656 -0.07004005 0.16009133 -0.056716267
0002b0 09 12 e8 bd 5e b1 97 bb 88 49 dd 3b 01 d1 65 bd
       -0.11331565 -0.004629298 0.0067531504 -0.056107525
0002c0 35 77 d2 3d 7c 4e 45 3d b0 38 71 3c 13 d9 63 3e
       0.10276643 0.04817055 0.014722988 0.22250776
0002d0 9c a7 5e 3b 15 af 86 bc e9 a6 95 3e e8 02 8a 3e
       0.0033974415 -0.016440907 0.29228905 0.26955342
0002e0 1a 4a 86 3e 92 9f 29 be f2 0d 0b 3e 1e 04 e6 3d
       0.2622841 -0.16564777 0.13579538 0.11231254
0002f0 0c c9 6b bd 48 22 b7 bd 8b 09 55 3c 46 50 f6 3d
       -0.05756478 -0.089420855 0.0130027635 0.1202703
000300 b8 1b 09 3c fa 49 81 be 8f e0 b0 bd 26 3f 74 3d
       0.008368425 -0.25251752 -0.08636581 0.059630536
000310 5f 11 55 bd b3 03 0f be e6 83 a9 bd 43 4c dc 3d
       -0.05201852 -0.13966255 -0.08277111 0.10756733
000320 e9 c3 63 3d 5f e6 6d 3d a0 74 42 bd 12 37 d4 bd
       0.055606756 0.058081027 -0.047474504 -0.10362066
000330 e9 cd a1 3d 4d ee 61 bd e6 07 dc 3d e6 7a 1c 3d
       0.07900602 -0.055158902 0.10743694 0.038203143
000340 12 ff 0d 3d 0e 74 92 bd 86 2f 15 be bc 3a ee 3d
       0.034667082 -0.07151042 -0.1456891 0.116322964
000350 f7 a4 5c bd 93 b0 25 3e 56 54 73 bd 40 61 bc bd
       -0.05386826 0.16180639 -0.0594066 -0.091982365
000360 a7 f7 b5 3d d1 bc e4 3c b5 cc 7f bd 59 3f c4 3d
       0.088851266 0.027922066 -0.062451083 0.09582395
000370 d5 c0 4d be d0 36 0c 3e d7 f2 b0 bd 73 8b 14 bc
       -0.20093091 0.13692784 -0.08640068 -0.00906645
000380 bc 60 b7 bd 56 2c a1 3a c0 1a a0 3d 4b 41 0b 3e
       -0.089539975 0.0012296538 0.07817602 0.13599126
000390 1b 5b 30 3d 2f 71 00 3d e0 a1 52 3e 36 8e b1 bc
       0.043055635 0.03135794 0.20569563 -0.021674257
0003a0 b5 e9 38 be 94 1f f7 3d 26 50 f1 ba f0 36 fa 3c
       -0.18057902 0.1206657 -0.0018410727 0.030543774
0003b0 c8 a7 ef bc 2b 18 1c 3e 54 0e 05 be 4a b2 13 3d
       -0.029254809 0.15243594 -0.12993747 0.0360587
0003c0 7c b4 13 be 85 01 b3 3d c8 cf 0a 3e 6b ca a9 bb
       -0.14424318 0.08740524 0.13555825 -0.005181601
0003d0 95 28 1f 3e 61 b2 06 bd fc 85 b1 bc c6 d9 14 3e
       0.15542825 -0.03288496 -0.021670334 0.14536199
0003e0 f6 20 1a 3e 0a fd d2 3d d2 00 37 3e 57 57 c0 be
       0.15051636 0.103021696 0.17871407 -0.37566635
0003f0 c8 03 8f 3b ca e6 ec 3d a7 02 d7 bc ec 89 61 3b
       0.0043644644 0.11567457 -0.026246382 0.0034414483

encoder_linear2.bias f4 [64]
000000 fc 37 34 3b 29 f1 71 bc 8e 75 a8 3c 51 14 79 3b
       0.002749919 -0.01476697 0.020563867 0.0038006494
000010 1b cc b5 3b d1 43 a8 3b ee 55 c9 3c 6c f7 ef 3c
       0.005548013 0.0051350375 0.024577107 0.029292785
000020 a0 0b 7a 3c f9 9a 4c bb 21 cc ba 3c 02 37 8f 39
       0.015261561 -0.00312203 0.022802414 0.0002731607
000030 71 ce b7 3c ff 3f 6c 3c 05 7f 33 3c 63 d8 04 bb
       0.022437306 0.014419555 0.010955577 -0.0020270578
000040 36 68 3f bc 59 1a 84 3c 08 97 1d 3c 9d 7a 90 3c
       -0.011682561 0.016125845 0.009618528 0.017636592
000050 84 0f 07 3c 15 14 88 bc 21 0e 91 3c 03 cf 2b 3c
       0.008243445 -0.016611138 0.017706933 0.010486367
000060 4c 29 d4 bb 2b ec 81 3c 08 7a a9 3c 70 b0 c3 3c
       -0.0064746495 0.015859684 0.020688072 0.023887843
000070 51 09 8e bc 85 ba b7 3c 71 75 b5 3c 35 96 da 3c
       -0.017338427 0.022427807 0.022150727 0.026682952
000080 a7 ae 17 3c 60 ad 92 3b 2d 71 c2 3a df 08 cc 3c
       0.009257949 0.0044762343 0.0014834754 0.024906574
000090 b8 7a b3 3c c4 ad 87 3c ff 1b 89 3c 00 ff 8b bc
       0.021909103 0.01656235 0.016736982 -0.017089367
0000a0 d4 1f c2 3c cf 45 2f bb 9e 2f 8e 3c dd ae 81 bc
       0.023696817 -0.002674449 0.01735669 -0.015830452
0000b0 9c 7c 65 bc 71 5d a9 39 f4 5c 24 bc 62 22 c7 ba
       -0.01400676 0.0003230381 -0.010031927 -0.0015192742
0000c0 6a 7f 05 3c 3f 2a 2d bb 83 78 95 3c 8b 3b c2 bb
       0.008148054 -0.0026422886 0.018245941 -0.005927508
0000d0 05 be 91 3c d0 8d 00 3b 26 7d 2d bb f4 8a 7f 3c
       0.017790804 0.0019615777 -0.00264723 0.015597094
0000e0 65 bd 62 bc 3d 64 85 ba e2 ce 0f bc b2 53 c2 3c
       -0.0138391005 -0.0010176968 -0.008777352 0.02372155
0000f0 3f 77 7f 3c 56 9e 62 3c 2d c1 a6 bb 35 50 69 3c
       0.015592395 0.013831696 -0.0050889463 0.014240314

encoder_linear3.weight f4 [8, 64]
000000 94 4e 02 be 9e 30 0a be b2 1c 17 be 89 49 23 3e
       -0.12725288 -0.13495108 -0.1475704 0.1594602
000010 e5 04 02 3d ec 80 11 3e 79 af d1 3d 94 b2 bf 3c
       0.03174295 0.14209336 0.10238547 0.023400582
000020 0d 2c 12 3e 2e 7b 94 3e 11 d4 d5 3d 85 81 95 bd
       0.14274617 0.2900023 0.10440839 -0.073000945
000030 6b 1f a3 bd 00 bf 54 bd 70 93 cc bd 30 99 ad 3d
       -0.07964977 -0.051939964 -0.09989059 0.08476484
000040 ae 58 31 be 6c 21 7b be 2d 82 5d 3e f4 a5 a8 3e
       -0.17318985 -0.24524468 0.2163169 0.32939112
000050 79 e6 3e bd 5d 99 ec 3d 4a 20 18 be 61 98 88 be
       -0.046606515 0.11552689 -0.14856067 -0.26678756
000060 d4 23 17 be 23 ed 81 3c f5 aa e2 bc 38 1c ae bd
       -0.14759761 0.015860146 -0.02766941 -0.08501476
000070 ae ca c4 3e e8 81 04 be ee c2 20 be a2 16 17 3c
       0.38435882 -0.1294018 -0.1569936 0.009221705
000080 64 cb 59 3e b0 09 38 be d4 02 20 be 78 23 09 3e
       0.21268994 -0.17972445 -0.15626079 0.13392437
000090 fb 95 43 3d e2 40 51 bd 32 d7 64 be 34 c6 43 be
       0.047750454 -0.051087268 -0.22347715 -0.19118577
0000a0 3d 59 84 be ab 58 3a 3e 00 5d a7 3d 29 fe 98 bc
       -0.25849333 0.18197887 0.08172035 -0.01867588
0000b0 ff dc 6b bd 06 7f fc bd c9 e7 66 be ef a4 4f 3d
       -0.057583805 -0.12328915 -0.22549357 0.050694402
0000c0 41 44 b1 bd e7 24 58 3d 28 ce 39 3e 8c 50 18 3d
       -0.086555965 0.052769568 0.18145049 0.03718619
0000d0 4a 73 0d 3e 08 e8 66 bd 09 65 32 3e 26 63 3c bd
       0.1381351 -0.056373626 0.17421354 -0.045992993
0000e0 87 2e 9c be f3 91 a6 bc 11 7e 64 be 07 d5 a2 3e
       -0.30504248 -0.020333266 -0.22313716 0.31803152
0000f0 3a 9c 3d bd 6c f0 c3 3e 58 9f 64 3d e6 69 3f 3e
       -0.046291567 0.38269365 0.055816025 0.18692741
000100 23 cd 08 3e 30 fd 39 be 44 9d f6 3d 4e ca c7 bd
       0.13359503 -0.1816299 0.12041715 -0.097553834
000110 df 9e 0c be fb ad 6a be 52 eb bc bd 1d b2 9d 3d
       -0.1373248 -0.22917931 -0.09224571 0.07699988
000120 eb 1e 42 3e 99 7f 14 be 30 60 d6 3d 47 f9 b1 3d
       0.18957107 -0.145018 0.10467565 0.08690124
000130 5d 63 e8 3c f9 97 6c 3e 87 f9 8b bd af 1a 22 be
       0.028367693 0.23104848 -0.06834703 -0.15830491
000140 fd b3 02 bc 12 1b 35 3e 0b 1f 6b 3d 81 61 f4 3e
       -0.007977483 0.17686108 0.05740265 0.4773064
000150 62 78 16 3e 2e b4 30 be 23 d4 c2 3d cd fe b4 ba
       0.1469436 -0.17256233 0.09513118 -0.0013808847
000160 30 47 90 be 53 43 44 be 41 11 f7 3d 4f 10 9d 3e
       -0.28179312 -0.19166307 0.12063838 0.30676505
000170 24 65 f5 be cf a8 fe 3d c4 94 3b 3e 81 37 61 3e
       -0.47928727 0.124345414 0.18318468 0.2199383
000180 e4 9a 29 3e d1 53 2e 3e 16 0e 64 bc cf 6c 7c 3e
       0.16562992 0.17024161 -0.013919374 0.24650882
000190 fa 18 89 3e a1 36 9d bc 36 40 34 bd 37 dc 95 bd
       0.26776868 -0.019191088 -0.04400655 -0.07317393
0001a0 d1 29 85 ba 78 5e ad 39 b4 fb 2a 3d 44 9c aa bd
       -0.0010159557 0.00033067516 0.04174395 -0.083305866
0001b0 e1 93 61 be 8c 7d a9 3e 34 ed ae 3d fc ff 62 be
       -0.22029068 0.33103597 0.08541337 -0.22167963
0001c0 22 c2 a8 3d 10 30 71 be 4d de 29 3e 5a e2 9a 3e
       0.08240153 -0.2355349 0.16588707 0.30250818
0001d0 02 b2 10 3e 7c 61 c3 bc 88 37 59 be ca 4c 41 bc
       0.14130405 -0.023850195 -0.2121259 -0.011798093
0001e0 0a 31 f5 bd 0e 38 7b bd 55 d7 ea bd f4 68 4b 3e
       -0.11972244 -0.061332755 -0.114668526 0.19864255
0001f0 94 ec 79 bc 35 0d aa bd 07 3e aa bd 97 8d 69 3d
       -0.0152541585 -0.083033 -0.08312612 0.057019796
000200 dc 48 66 bd 97 7d 0d 3e a3 17 93 bd 58 2b 9c 3a
       -0.056221828 0.1381744 -0.07182243 0.0011914773
000210 a0 44 2e be d6 9c 02 be c3 19 9b be 2b 3c b4 bd
       -0.17018366 -0.1275514 -0.30293092 -0.08800539
000220 40 65 d5 bd 22 8e e0 3d a8 e7 ee 3e 58 e9 05 bd
       -0.104197025 0.1096461 0.46661115 -0.032693237
000230 1e f5 47 3d 6e 81 03 be d9 4b 67 be 98 b5 f9 3d
       0.048817746 -0.12842342 -0.22587527 0.121928394
000240 cf 5e bd bd 71 62 15 be 1e 8f e2 bb aa 44 f4 bc
       -0.09246599 -0.14588334 -0.0069140336 -0.029817898
000250 76 56 9c be 84 34 7a be e3 0d 5c 3e 6d 97 33 3d
       -0.30534714 -0.24434096 0.21489672 0.043845583
000260 04 a3 61 3c c9 07 a3 be 3d 88 7e be 2d 8a 80 bd
       0.013771776 -0.31841877 -0.24856658 -0.06276355
000270 44 0d a5 3d 3f dd 30 be 3c 81 95 be 24 3e d3 bc
       0.08059171 -0.17271899 -0.2920016 -0.025786467
000280 dc ac 9c 3e 76 35 95 3e 62 d7 91 3d 8d 53 28 bd
       0.3060063 0.2914235 0.07121159 -0.041095305
000290 53 d5 9d 3d e4 14 6b be 00 a4 47 be c8 25 cb bd
       0.07706704 -0.22957188 -0.19496155 -0.099193156
0002a0 de af 2a be dc f7 f7 bc 3d 21 95 bb 12 ca ee 3d
       -0.1666865 -0.030269556 -0.0045510815 0.116596356
0002b0 1b 4b d6 3d f5 66 ad 3b f2 d3 4a 3e 95 a7 04 3e
       0.10463544 0.0052918145 0.19807413 0.12954552
0002c0 f8 83 f4 3b 32 05 2e be 2a a2 38 be 11 3e 01 be
       0.007462021 -0.1699417 -0.1803061 -0.12621333
0002d0 c1 c0 f5 3d 28 2d 7c bc 5a c9 98 bd 0e 81 c6 3d
       0.119996555 -0.015391625 -0.0746028 0.09692584
0002e0 90 68 b2 bd 06 fb 07 bd 7b 03 a0 3d 87 23 ec 3e
       -0.0871135 -0.03319838 0.07813164 0.46120855
0002f0 3e d7 fe 3c b7 f9 ec bd 55 77 04 3e 85 8f 8d 3e
       0.031108495 -0.11571067 0.12936147 0.2764856
000300 60 2c 68 3e be 7c 62 be c6 27 9e 3e 40 b3 0b be
       0.22673178 -0.22117898 0.3088972 -0.13642597
000310 f2 7f 68 3d 4e d5 7a 3e e8 5f 07 bd ea 7f a6 3d
       0.056762643 0.24495432 -0.033050448 0.081298664
000320 4c 0d 6c bc 46 0f 3f be 4b a0 48 be 02 45 82 bc
       -0.014407467 -0.1865817 -0.19592397 -0.015902046
000330 d4 84 59 3e 10 ed b6 be a7 a7 29 bd 85 9e 6a be
       0.21242076 -0.3572774 -0.04141965 -0.22912033
000340 58 7d 93 bd da fb be 3d c4 05 2e bd 97 ca d5 3d
       -0.07201642 0.093253806 -0.042485967 0.104390316
000350 71 cd 07 be 04 b8 fe 3d e8 bc dd 3d 16 ee 6d bb
       -0.13261963 0.12437442 0.10827047 -0.003630524
000360 43 33 4f 3e 52 c3 f0 bd 41 ae 9a 3d 1c 89 fd b9
       0.20234399 -0.117560044 0.075527675 -0.00048358075
000370 dd 25 ee 3d b8 d1 26 3d 66 57 5a 3d c9 a3 0f 3d
       0.116283156 0.040727347 0.053306006 0.035068307
000380 9b ea c5 bd 45 eb cb bd 28 c8 a7 3e ec 96 55 be
       -0.09663888 -0.099569835 0.32769895 -0.20858353
000390 8b 02 2b bd dc 9b 77 3e 19 8d 20 3d f7 f7 ee 3c
       -0.041750472 0.2418055 0.03919706 0.029170973
0003a0 4a dd bb bd 64 fd 84 3d d5 97 ef bd 47 6f d2 3c
       -0.09173067 0.06493643 -0.116988815 0.025687827
0003b0 fd 50 53 bd c3 43 00 be 40 45 08 be 77 0a 96 bd
       -0.05159091 -0.12525849 -0.13307667 -0.07326215
0003c0 23 da 89 bd 9e 38 30 3e 38 59 54 bc a5 45 59 bd
       -0.067310594 0.17209098 -0.0129607245 -0.053044934
0003d0 b2 54 ae 3d 7b 4d da 3c 3e b5 16 be 55 c7 94 bc
       0.08512248 0.026648274 -0.14717576 -0.018161455
0003e0 6b 3f fd bd 83 81 33 be 74 74 fe 3d 77 23 09 bd
       -0.12365612 -0.17529874 0.124245554 -0.033481088
0003f0 a4 0c 4c 3e 29 94 25 3e ca 1a 26 be 70 d1 4a bd
       0.19926697 0.161698 -0.16221157 -0.04951614

encoder_linear3.bias f4 [8]
000000 f5 9f 41 3c 3b b9 a0 3c 64 a7 d5 3b f4 f5 ab 3c
       0.011817922 0.019619575 0.0065201987 0.020991303
000010 37 fc ef 3b 22 24 1b bc d9 45 82 3c 2e 95 66 bc
       0.0073237675 -0.009469064 0.015902447 -0.014073653

decoder_linear1.weight f4 [64, 8]
000000 a8 4b 9e 3c ed 29 27 be 6e 8c 60 3e d8 f2 7b 3e
       0.019323185 -0.16324587 0.2192857 0.24604356
000010 8a c3 3d 3c 9d 5a 37 3e b0 a0 ab 3b d7 1c 83 3e
       0.011582265 0.1790566 0.0052376613 0.2560794
000020 73 e2 3b 3e e4 a5 43 be 97 13 42 bc 04 f1 ee bc
       0.18348102 -0.19106251 -0.011845491 -0.02916766
000030 bc 63 34 3e 58 f8 2e be 31 18 9f be 23 38 72 3e
       0.1761617 -0.17086923 -0.31073144 0.23654227
000040 74 0d 4d be 48 3c c4 3d b6 77 88 bd a7 ca 6c bd
       -0.20024663 0.0958181 -0.06663458 -0.05781045
000050 e1 40 80 3e 82 b8 bd be 0b c9 c6 be 34 27 8b bd
       0.250495 -0.3705483 -0.3882526 -0.06794587
000060 33 ac 1c 3e c3 81 40 be 7e bc 93 be 64 d5 7e 3e
       0.15300064 -0.187995 -0.28854746 0.2488609
000070 36 a1 43 3e b5 bf 13 be 4f 06 40 3e 17 88 8d bc
       0.19104466 -0.14428599 0.18752407 -0.017276807
000080 ee d8 36 3d 89 2f 57 bd fd 84 41 3e af 18 6b be
       0.044640474 -0.052535567 0.18898387 -0.22958635
000090 33 8a 59 be 57 20 14 be 08 ae ef bd 80 6f 00 3e
       -0.21244125 -0.14465462 -0.11703116 0.12542534
0000a0 18 58 3a 3e eb 99 49 3e 24 7d 82 bc 30 de 7c be
       0.18197668 0.19687621 -0.015928812 -0.24694133
0000b0 bb e7 2f 3e dc c4 9e bd ea a3 6e bd 82 50 82 bd
       0.17178242 -0.07752392 -0.05826179 -0.06363012
0000c0 7f 6c 07 be 94 38 9c 3d c3 d5 08 3e 13 9d 8f bc
       -0.13224982 0.07627979 0.13362794 -0.017530954
0000d0 33 b5 dd bd 6c d5 c5 bd ef 8a 6e be c7 bf 73 3e
       -0.10825577 -0.096598476 -0.23295186 0.23803626
0000e0 80 2e 22 3e cd c7 84 3e 2a 31 f5 3d 04 96 7d be
       0.15838051 0.25933686 0.11972268 -0.24764258
0000f0 72 58 32 3e 67 75 19 be 27 96 ab 3e ad 24 a4 be
       0.17416552 -0.14986192 0.33512995 -0.3205923
000100 48 90 d4 3d 52 2b 14 3e f6 e2 7a be 70 72 5c be
       0.10379082 0.1446965 -0.24500641 -0.2152803
000110 1a 09 2c be ca ed aa bc 21 10 f0 bd 9a b2 fc 3d
       -0.16800347 -0.02086534 -0.11721826 0.12338753
000120 f9 ff 8d be e2 c9 97 3e 1f 5b 45 be f8 71 bf 3a
       -0.27734354 0.29646212 -0.19273041 0.0014606109
000130 49 0e a4 bd 38 4f 3f be f5 d3 82 bd b2 15 29 be
       -0.08010537 -0.18682563 -0.06388084 -0.16512182
000140 70 03 a8 3c f1 ea 1a bc ce 64 af 3d e2 20 72 be
       0.020509452 -0.009455428 0.08564149 -0.23645356
000150 04 4d f5 3d d0 ed 6b 3e b0 35 22 3d d2 b6 bd bd
       0.1197758 0.23039937 0.03960198 -0.09263386
000160 4b 6f e2 be 83 20 63 3e d0 ba 1f be c4 ed 8f bd
       -0.44225535 0.22180371 -0.15598607 -0.07027772
000170 a3 a3 23 3e eb e0 9c be 59 a4 a5 be a6 e4 9c bd
       0.15980391 -0.3064035 -0.3235195 -0.07660799
000180 ac c9 98 3c 10 ae 01 3e c5 2d f3 bd 77 4c 17 3e
       0.018650852 0.12664056 -0.11873964 0.14775263
000190 e2 37 31 be 47 28 5c 3e e9 66 f2 bd bf eb fd bc
       -0.17306474 0.2149974 -0.11836035 -0.030996202
0001a0 70 49 dc 3d 37 85 f1 bd 64 c0 33 be f8 d4 b3 be
       0.107561946 -0.11792987 -0.1755386 -0.3512342
0001b0 8d 52 5e 3d 07 05 2b 3e ff 51 bf 3d 15 04 12 3e
       0.054277945 0.16701137 0.093418114 0.1425937
0001c0 82 63 17 be 1e 33 2f be b2 43 eb 3d 4b 62 2e 3e
       -0.14784053 -0.17109343 0.11487521 0.17029683
0001d0 24 81 8a 3e c7 20 a7 3d 29 e8 2e 3e f1 4a c6 bc
       0.2705165 0.08160549 0.1708075 -0.024205657
0001e0 22 06 4d 3e d8 99 2d 3e bb f8 07 bc b0 bc 81 3e
       0.2002187 0.16953218 -0.008299048 0.2533927
0001f0 ec 99 58 3e 5d 1d 8e bd 38 06 46 be b4 c4 58 3e
       0.21152467 -0.06939194 -0.1933831 0.21168786
000200 af 44 b1 ba 8d b0 97 3d 5f b5 a2 bd e6 39 26 be
       -0.0013524498 0.07406721 -0.0794475 -0.16233024
000210 02 6f eb 3d 0c 0d d0 3d ce 3a 6b 3e 0a f3 1f 3e
       0.114957824 0.101587385 0.22971651 0.15620056
000220 18 e2 ca 3b f3 15 11 3d 2a 25 47 be 8c b1 ea 3d
       0.0061915033 0.035421323 -0.1944777 0.11459646
000230 42 82 26 3b 06 3d 4f be 6a 4c eb bd d8 44 06 be
       0.002540723 -0.20238122 -0.11489184 -0.131122
000240 cb 9f 2f 3d ae 56 99 3c 6c 10 8a bd 86 f3 25 bd
       0.042877 0.01871809 -0.067414135 -0.040515445
000250 f2 74 44 bd c4 84 07 be 62 d2 e7 3d 3b e0 ff 3c
       -0.04796309 -0.1323424 0.11319424 0.031234851
000260 cf 7c 33 bd 8c d9 1d 3d 18 23 9c 3e 92 b7 c8 bc
       -0.0438202 0.038537547 0.30495524 -0.024501596
000270 ed 1d 2f bd 34 1c 84 3c 48 78 64 3e 6f 46 e0 bd
       -0.04275315 0.01612673 0.22311509 -0.10950934
000280 04 1d e2 bc 42 21 fc 3d 60 f7 b5 be 5e 31 20 3e
       -0.027601726 0.12311031 -0.35540295 0.15643832
000290 db fb 63 be 08 62 05 3d 24 05 db bb ec d8 6d bc
       -0.22264044 0.032564193 -0.0066839624 -0.01451705
0002a0 bb f5 3e be 80 77 5a 3e 0e 10 0d be b3 df dc bc
       -0.18648426 0.21334648 -0.13775656 -0.026962137
0002b0 a5 5d 87 bd d7 d2 e5 3e 63 ee 85 3e 91 78 8d bd
       -0.06609658 0.4488742 0.26158437 -0.06907762
0002c0 ce da 4f bb 88 19 49 bd 57 82 e2 3d 48 8f 38 bd
       -0.003171611 -0.049096614 0.110600166 -0.04505852
0002d0 bb f0 04 be 43 19 22 be aa fb cc 3c 01 80 12 3e
       -0.12982456 -0.15829949 0.025022347 0.14306642
0002e0 2d 71 3d 3e 89 c4 93 3d 87 b8 9b 3d 24 27 ac bd
       0.18500204 0.072152205 0.07603555 -0.08405903
0002f0 50 28 c9 3d fa 22 87 3e ea 31 b0 3d 92 65 19 be
       0.09822142 0.26393872 0.0860327 -0.14980152
000300 7e b4 12 be 88 f8 bf bd 08 b5 c2 be 6e 93 18 be
       -0.14326665 -0.093735754 -0.3802874 -0.1489999
000310 1e 8e dd bd fe 0a 87 bc ff c0 e9 3c fb b9 1d bd
       -0.10818122 -0.016484734 0.02853441 -0.038507443
000320 15 f6 2b 3e 12 0a 87 be 64 3c e6 3d ec 21 00 3d
       0.16793092 -0.2637487 0.11241987 0.03128235
000330 17 ab 27 3e a6 b7 cb 39 c5 84 03 3e 04 93 bc 3d
       0.1637386 0.00038856006 0.12843616 0.092077285
000340 c8 aa c4 bd e2 87 6a bc 63 a6 ae 3d f0 6d ca 3d
       -0.096028864 -0.014314624 0.085278295 0.0988425
000350 b6 d8 02 3e ae b8 d1 3d 64 5c 8e 3e 89 30 c8 3d
       0.12777981 0.10240303 0.27804863 0.09774882
000360 c8 60 27 bd bf f7 ac bd 55 37 46 bd 6f 78 c5 bd
       -0.040863782 -0.08445691 -0.048392612 -0.096421115
000370 2c 0e ba 3c 5c b2 5e 3e 55 b8 ad bd a4 cc a8 3d
       0.022711836 0.21747726 -0.08482424 0.08242157
000380 7e 28 92 bc ac a8 e0 3d ff c6 9b be 3f 8c d8 3e
       -0.017841574 0.109696716 -0.3042526 0.422945
000390 7f b9 e3 be 2a ea 7b bc fe 1e a1 be 66 ce aa be
       -0.4447746 -0.015375653 -0.31468958 -0.33360595
0003a0 86 af e2 3d c4 64 82 3d 2f 86 72 be f9 dd 0b 3d
       0.11068635 0.06366876 -0.23684 0.034147236
0003b0 80 02 65 3e 8d 21 ae 3d 84 60 1c 3d c7 cb f0 bd
       0.22364235 0.08502493 0.038177982 -0.117576174
0003c0 10 3a 0a 3e a7 07 19 be 32 5a 91 be 4a 25 61 3d
       0.13498712 -0.14944325 -0.28389126 0.054967202
0003d0 70 bb 24 bd d4 82 7c be 0f b6 bf 3d 14 4d 25 be
       -0.040217817 -0.24659282 0.09360897 -0.16142684
0003e0 85 27 1c 3d 06 b8 08 be ef fc 5f be d2 2a c5 bd
       0.038123626 -0.1335145 -0.2187383 -0.09627308
0003f0 41 a7 02 3f 8f d2 6b bd c2 86 47 3e d9 92 84 bd
       0.5103646 -0.05757385 0.19485 -0.064733215

decoder_linear1.bias f4 [64]
000000 2c 4e 82 bb 89 b2 ca bb 00 00 00 00 00 00 00 00
       -0.003976604 -0.006185834 0.0 0.0
000010 dc 8f ed 3b 00 00 00 00 19 60 fd 3b d6 77 57 3c
       0.0072498154 0.0 0.007732403 0.01315113
000020 1a 8b 4d 3c 00 00 00 00 5b 22 f4 3b 00 00 00 00
       0.012545371 0.0 0.0074503846 0.0
000030 e6 87 0a 3c b5 3f d8 3b a8 df 9e ba 54 12 b9 3a
       0.008455252 0.0065993913 -0.0012121098 0.0014119842
000040 54 88 cb 3b 00 00 00 00 00 00 00 00 23 4e 56 bb
       0.00621132 0.0 0.0 -0.0032700382
000050 e0 8a b2 b8 9d 19 1d 3c 2e d9 13 bb 9a bc a9 bb
       -8.513569e-05 0.009588626 -0.002255987 -0.0051799538
000060 00 00 00 00 be 30 22 bb f0 62 08 3c 1c 37 d5 bb
       0.0 -0.002474829 0.00832437 -0.0065068137
000070 00 00 00 00 92 7e ff bb 00 00 00 00 06 58 3d 3b
       0.0 -0.007797071 0.0 0.0028891577
000080 07 0a 02 3c dd 18 f7 ba be e6 d4 bb 00 00 00 00
       0.007936961 -0.0018852014 -0.006497233 0.0
000090 b1 c1 19 3c c8 69 0f 3c f8 c5 ab bb 06 cb d0 3b
       0.009384559 0.008753248 -0.0052421056 0.0063718585
0000a0 24 66 f6 3b 00 00 00 00 09 fb ea bb 00 00 00 00
       0.0075195003 0.0 -0.007171039 0.0
0000b0 dd 48 1b 3b 85 35 13 3c 83 93 fe 3b 00 00 00 00
       0.0023694553 0.008984928 0.0077690496 0.0
0000c0 b1 7f e7 3b 85 d6 14 bb 87 49 2b 3c f6 10 02 3c
       0.0070647825 -0.0022710871 0.010454542 0.007938614
0000d0 c8 bc ee bb 65 cd b3 3b 00 00 00 00 e3 f3 f0 b9
       -0.007285688 0.0054871314 0.0 -0.00045958077
0000e0 67 c6 8a bb 22 88 d5 3b 13 30 48 3c 00 00 00 00
       -0.004235077 0.0065164724 0.012218493 0.0
0000f0 bf 36 87 ba eb f8 d4 3b 00 00 00 00 64 a4 a0 3c
       -0.0010315998 0.0064994 0.0 0.019609638

decoder_linear2.weight f4 [64, 64]
000000 7d 65 cb bd f2 91 a7 bd d1 b4 82 bd 7c 8b 8b bd
       -0.09931467 -0.08182134 -0.06382144 -0.06813714
000010 7b ad c2 bd 7f b1 16 3e 48 b2 bc bd 31 59 ee bd
       -0.09505745 0.14716147 -0.09213692 -0.11638106
000020 23 b1 42 bd 5f 7f 57 bc c3 98 94 bc 1a 47 99 bd
       -0.047532212 -0.013152926 -0.018139249 -0.07484265
000030 c6 f9 89 39 d8 0a 85 3d 3c c6 51 be 66 d2 39 3d
       0.00026316772 0.06496209 -0.20485777 0.045366667
000040 3c f3 c3 3c e4 32 3c be 53 04 8f bc f6 49 0c 3e
       0.023919694 -0.18378788 -0.017458117 0.13700089
000050 44 c7 33 3e d9 04 07 3c 13 16 c9 bd 04 d9 77 3e
       0.17556483 0.008240902 -0.098186634 0.24203879
000060 2f f3 40 be 8d 7c 13 3e 48 a8 9d 3e 18 a4 7e bd
       -0.18842767 0.14402981 0.3079245 -0.06216821
000070 09 1f 5e 3c 18 4e 37 3c 68 21 06 bd ba 75 fe 3d
       0.013557204 0.011188053 -0.032746702 0.12424798
000080 7f bb ee bb 60 c7 bc bc db a0 79 bd 66 c5 23 be
       -0.007285535 -0.023044288 -0.06094442 -0.1599327
000090 05 e8 2e bd 00 5d 41 bd cb c1 35 3b d4 b9 83 be
       -0.04270174 -0.047207832 0.0027733918 -0.25727713
0000a0 90 01 ba bd 66 bf e2 3d ab 8a 49 3d b5 34 4d 3d
       -0.09082329 0.110716626 0.04920451 0.050099093
0000b0 b0 70 0f 3e 08 6f ee 3d 9e d0 56 3d 0f ec 4e be
       0.1400783 0.11642271 0.052445047 -0.20207237
0000c0 87 49 36 be 6f d2 93 bc 3b 38 db bc c1 8d f0 3d
       -0.17801486 -0.018044678 -0.026760211 0.117457874
0000d0 d4 7d d8 bc 45 93 4e 3e 04 3f 30 3e 1e 69 69 bd
       -0.026427187 0.20173366 0.17211539 -0.056985013
0000e0 31 83 de bd 21 db 61 3d be 34 b6 3d 2c 22 c3 bc
       -0.108648665 0.05514062 0.088967785 -0.023820005
0000f0 a8 3e b9 bc 4d bc d4 bd 1b fc 28 bd 33 6f e7 3d
       -0.022612885 -0.10387478 -0.04125605 0.113005064
000100 dc 22 76 be c4 40 b0 3c 49 44 15 be 28 2c a6 be
       -0.24036735 0.021515258 -0.1457683 -0.32455564
000110 a1 58 4f bc ab a4 69 bd 3b cf 3c 3c 69 f4 b4 bd
       -0.012655408 -0.057041805 0.011524017 -0.0883568
000120 55 a6 00 be 73 84 2f be 51 04 33 3e e6 e6 d4 3d
       -0.1256345 -0.17140369 0.17482115 0.10395603
000130 63 d2 c4 3d 0c f0 fa bd 09 ce 01 be 4b 49 c5 3d
       0.096104406 -0.122528166 -0.12676252 0.0963312
000140 8e bd 84 3d 3c 4e 71 be e0 06 93 ba 17 c6 18 be
       0.06481467 -0.23565 -0.0011217259 -0.14919315
000150 36 d3 aa bd 01 a1 1b bd 07 38 96 3d d6 8a f0 3d
       -0.083410665 -0.037995342 0.07334905 0.11745231
000160 b5 b3 e4 bd 90 05 0d 3e 51 36 ae 3c ee 79 bd 3a
       -0.11167089 0.13771653 0.021266134 0.0014455894
000170 a9 f1 7d be 42 4c 65 bd 63 fe 4d bd 17 85 ee 3d
       -0.24799217 -0.05598093 -0.05029143 0.116464786
000180 3c 14 87 bd 0c 51 ea 3d 4d 2c 09 3e 0e ee 89 3d
       -0.06595656 0.1144124 0.13395806 0.067348585
000190 88 e3 92 be 64 48 13 3c 35 6d 33 3c 5d e5 4d 3d
       -0.28689218 0.008989427 0.01095133 0.050267566
0001a0 bf 5a 84 be 4e 85 28 3d 7d 9d f9 bc a7 95 4a 3e
       -0.25850484 0.041142754 -0.030470604 0.1978365
0001b0 7e 4b f6 3d 9c 63 0d 3e 28 ef f7 bd 6a 8c 3b 3d
       0.12026118 0.13807529 -0.12106162 0.045788206
0001c0 c4 6b 2f 3e b5 da 30 3d 80 eb 8d bc 4b ad 1d be
       0.17130953 0.043177325 -0.01732421 -0.15398137
0001d0 27 d7 72 3e fd 61 df bc 68 aa 12 bd bb 62 40 3e
       0.23714887 -0.027268404 -0.035807043 0.18787663
0001e0 41 fd 2e 3d 8b 45 4f 3c 44 e2 03 bd f0 aa fd bd
       0.04272199 0.012650858 -0.032198206 -0.12386119
0001f0 ea cf 36 3d 35 1e 18 be 1e 94 10 3d e8 c0 f1 3c
       0.044631876 -0.14855273 0.035297506 0.02951093
000200 b8 9d 1b be be c5 47 bc e3 05 92 bc 2b dd 1d be
       -0.15196884 -0.0121931415 -0.017825073 -0.154164
000210 4f 61 02 be b3 d9 f6 bc 00 63 f1 3d 77 44 44 3e
       -0.12732433 -0.030133104 0.11786461 0.19166742
000220 8c 49 b5 bd 52 a2 30 be 10 eb c0 bb 7b a1 b9 bd
       -0.088519186 -0.1724942 -0.0058873966 -0.09064003
000230 6a be e9 bd a9 64 39 3e 9b 34 e2 3d 6d 97 63 bc
       -0.11413272 0.18104805 0.1104519 -0.013891083
000240 5f 7e 59 3d 47 22 54 3e 0c 7f f8 bc ce 5f 13 3e
       0.053099032 0.20716201 -0.030334018 0.14392015
000250 b2 b6 d6 3d e4 be 65 3e 11 78 29 be 57 95 2a 3d
       0.10484065 0.224361 -0.16549708 0.041646328
000260 ef 9c f7 3c 78 ff 56 bd 0f b8 a9 bc ae 20 8f 3d
       0.030226199 -0.052489728 -0.020717649 0.06988655
000270 28 4f e1 3c 3f 5e 8c bb 16 af aa bd 80 46 00 3e
       0.027503565 -0.004283696 -0.08334176 0.12526894
000280 b5 ff 9f bc 08 4a db 3d df 6e 1e 3c 74 39 43 bd
       -0.01953111 0.1070748 0.009669988 -0.047662213
000290 54 54 66 be 93 39 81 3d d2 8f 23 be 34 d7 a7 3d
       -0.22493106 0.063098095 -0.15972832 0.081953436
0002a0 40 95 b6 bb 63 52 da bd eb c4 fc bd 0a 01 8c be
       -0.005571991 -0.10660245 -0.123422466 -0.27344543
0002b0 6c 0a 06 3e bc 45 f1 bd 89 32 c7 3d e9 59 40 be
       0.13089913 -0.11780879 0.09726436 -0.18784298
0002c0 01 8a 4d 3d cb 62 14 3d 77 9f 6b 3e 47 ba b8 3c
       0.05018044 0.03622703 0.2301005 0.022549761
0002d0 32 eb b5 bd f3 19 d7 3d 62 5f 7f be 73 e7 aa 3d
       -0.088827506 0.10502996 -0.2493873 0.08344927
0002e0 6f 70 a8 bd 94 f5 5a bd cd d8 14 bb 1d 83 22 3c
       -0.0822457 -0.053456858 -0.002271223 0.009918955
0002f0 17 7b 6b 3c 0e ac fa bd 39 54 7e bc cb ed f8 3d
       0.014372609 -0.12239848 -0.01552301 0.121547304
000300 38 19 1c bd 71 cf a9 3d d6 90 a5 bd 7a fd 11 bd
       -0.038109988 0.082915194 -0.08084266 -0.035642125
000310 45 ca 57 3d 9d 61 a5 bd ba 20 73 3d d6 9c fa bc
       0.052683134 -0.08075259 0.059357382 -0.030592363
000320 ab 0f e8 bc e2 85 b3 bd 12 6a 4f be be 72 4e 3e
       -0.028327784 -0.087657705 -0.20255306 0.20160958
000330 d6 dd fb 3c 43 41 ec 3d 83 62 63 3e f6 a9 d7 3d
       0.030745428 0.11535885 0.22205548 0.10530464
000340 64 7d ee bd 22 cf 05 be 77 ab b2 bd d7 ee 8a be
       -0.1164501 -0.13067296 -0.087241106 -0.27135345
000350 d9 f5 1a 3e cb 7d 51 3d 41 a0 9d 38 64 18 e2 bd
       0.15132846 0.051145356 7.516193e-05 -0.110398084
000360 3e bd c4 3d d0 cb f9 3d 91 f3 f5 3d 00 87 27 3e
       0.096064076 0.12197077 0.12009347 0.16360092
000370 27 38 fb bc 81 96 1f 3e 12 7c a9 3c 3f a6 0e 3d
       -0.030666424 0.15584756 0.020689044 0.034826513
000380 93 46 e3 3c 6c a1 74 3d 59 89 67 3d 21 7f 51 bd
       0.027743613 0.059724256 0.05652747 -0.05114663
000390 ef 52 7c be 0a 1b 09 3e e5 bd b6 be 77 2f b6 bc
       -0.24641012 0.13389221 -0.35691753 -0.02223943
0003a0 0f d0 c6 3d b4 a4 61 bd 1b 06 71 bb 43 45 0f 3d
       0.09707653 -0.055088714 -0.003677732 0.034978162
0003b0 49 ac 54 3d e5 c2 2b 3d 14 4b d1 bd 2b 75 e9 3d
       0.051922116 0.041933913 -0.10219398 0.11399301
0003c0 13 a3 d6 bc 88 56 a4 3c 31 6b c4 3d be 11 2d 3d
       -0.026200807 0.020060793 0.09590758 0.04225325
0003d0 20 83 78 bd f3 c9 28 3e 11 6a 82 be 0e 87 fa bd
       -0.060671926 0.16483288 -0.25471547 -0.12232791
0003e0 3c e7 e3 bd 61 2e f1 3d be da 12 3e 3b 0e e2 bd
       -0.11128089 0.11776424 0.14341256 -0.110378705
0003f0 bb 6c 00 3e 05 64 35 3d 5d 24 95 bc 83 db d2 bc
       0.12541477 0.04428484 -0.018205816 -0.025739437

decoder_linear2.bias f4 [64]
000000 e7 cc 99 3c b4 2c 70 bb 4a bf eb 3a ce ae e8 3b
       0.018774463 -0.003664774 0.0017986086 0.0071009165
000010 a9 a0 f7 3b 77 80 cb 3a c4 1d f5 3b 64 0e dd bb
       0.007556994 0.0015525956 0.007480355 -0.0067461003
000020 a2 76 e9 3b 00 00 00 00 42 fc e3 3b ed 91 db bb
       0.007124738 0.0 0.0069575617 -0.0067007453
000030 d6 b3 01 3c 46 43 ff bb a6 1a fb bb 40 27 f0 3b
       0.007916411 -0.007790002 -0.007663089 0.0073288977
000040 96 c0 28 3c d3 50 d1 bb 00 00 00 00 f3 ed 2c bb
       0.010299822 -0.006387809 0.0 -0.0026386946
000050 a4 00 e4 3b 00 00 00 00 75 04 3c 3c fa 0a 7c 3b
       0.006958084 0.0 0.011475672 0.003845869
000060 d9 1e b6 bb 00 00 00 00 00 00 00 00 00 00 00 00
       -0.0055578765 0.0 0.0 0.0
000070 00 00 00 00 00 00 00 00 2f 5b 06 3c 9d 10 e5 3b
       0.0 0.0 0.008200451 0.006990506
000080 64 1b e4 3b 41 94 03 bc a4 ae ae b9 00 00 00 00
       0.006961273 -0.008030952 -0.00033317984 0.0
000090 ee af 17 bc 00 00 00 00 00 00 00 00 0c 7b 0c bb
       -0.0092582535 0.0 0.0 -0.0021435646
0000a0 e7 b7 e2 3b dc 0e ed 3b 1b e2 df bb 00 00 00 00
       0.0069188955 0.0072344374 -0.006832374 0.0
0000b0 e8 8b e7 3b 22 ef e8 3b 91 fe a7 38 7d eb ee 3b
       0.0070662387 0.007108585 8.010597e-05 0.007291256
0000c0 05 26 0e ba 92 18 dc bb 5c 00 d7 bb 48 69 29 b9
       -0.00054225355 -0.006716796 -0.006561322 -0.00016156316
0000d0 35 48 3f bb 17 85 e2 ba 0e 57 e5 3b 0a 85 e6 3b
       -0.0029187326 -0.0017282096 0.006998903 0.0070349025
0000e0 8e 71 2c 3b a1 18 ea 3b 97 c1 9e ba f1 1e 4a 3b
       0.00263128 0.0071440493 -0.0012112138 0.0030841196
0000f0 50 57 98 3b 2c 69 eb 3b a3 af dc bb a5 42 99 3b
       0.0046490803 0.0071841683 -0.0067348047 0.004677134

decoder_linear3.weight f4 [1, 64]
000000 35 22 76 be 0f 53 86 3e 00 4e 94 be 83 b4 c6 3d
       -0.24036486 0.26235244 -0.2896576 0.09702399
000010 0f 3b dc 3d db cf 12 bd 13 7f 79 3d c7 4d e1 bd
       0.10753452 -0.035842758 0.060912203 -0.11001163
000020 49 9f aa 3d 27 f9 88 bd 57 bd ba 3e bb d5 b8 bd
       0.083311625 -0.06688147 0.3647258 -0.09025141
000030 24 95 96 3d 2d 64 c5 3b 8d 59 48 be a5 24 52 3d
       0.07352665 0.006023905 -0.19565411 0.05130448
000040 1c f8 95 be ec f4 e1 bc 73 de 9f be aa cb 6e bc
       -0.29290855 -0.027582608 -0.31224403 -0.0145749245
000050 40 fe 92 3e 44 0c 38 3d d2 5d c5 bd 4a bc b4 be
       0.28709602 0.044933572 -0.096370354 -0.35299903
000060 34 27 e0 bd 1b 00 80 3e 73 87 57 be 01 0d dd bd
       -0.109449774 0.2500008 -0.21047764 -0.10793496
000070 5b fd 4e be 73 7f 9a 3e e9 1f 0e bd 96 34 48 3e
       -0.20213835 0.3017536 -0.0346984 0.1955131
000080 fc 21 8a 3e 76 d7 a8 bd f7 ea c6 bd 60 d5 8b 3e
       0.26979053 -0.08244221 -0.09712785 0.2731123
000090 6c ad 28 3d 34 40 3e 3e 2e 1c c6 3e fb ad 1a be
       0.041181013 0.18579179 0.38693374 -0.15105431
0000a0 e4 3a 33 3f 12 31 84 3d a8 61 7d be 7e 1d d5 3e
       0.70011735 0.06454672 -0.24744284 0.41624063
0000b0 6f d9 f7 3d f8 60 c2 3d e4 8c 47 bd fc fb a5 3d
       0.12102019 0.094911516 -0.04871835 0.08104703
0000c0 ae a6 41 be 8e ad 85 bb 68 23 33 bd bd 1a 07 be
       -0.1891124 -0.004079527 -0.043734938 -0.13193794
0000d0 c6 4b 73 be 91 89 bc be 26 e6 2f 3e 37 b0 0d 3e
       -0.23759374 -0.36823705 0.17177638 0.13836752
0000e0 53 84 66 bd d3 c6 9c 3d 9e f0 18 3e 86 a2 95 be
       -0.056278538 0.0765511 0.14935538 -0.29225558
0000f0 e8 ef 90 bd ac 6c 94 3d dd 54 d3 bd a9 cb 98 bd
       -0.070770085 0.0724729 -0.10318921 -0.0746072

node_update_linear1.weight f4 [64, 9]
000000 0b cf ae be d1 45 d7 3c 2a 59 2c be a6 ec 9f bd
       -0.34142336 0.026278408 -0.16830888 -0.07808809
000010 5e 8f 94 3e 39 7f 98 bd 84 38 86 bc 24 40 00 bd
       0.2901563 -0.07446141 -0.01638437 -0.03131117
000020 c8 a4 01 be 6d 45 90 be 40 79 ae 3d 4b 5f 2f 3e
       -0.12660515 -0.28177968 0.0851922 0.17126195
000030 76 09 1c be 93 16 46 3e 96 1f 70 3e 90 83 07 3e
       -0.15237984 0.19344549 0.23449549 0.13233781
000040 76 dd c5 3d fb 65 0a 3e 04 40 9a bc 0e 1e 28 3e
       0.09661381 0.13515465 -0.018829353 0.16417715
000050 3e ac 08 3e 36 ca b7 3d b3 65 20 bd 5c 11 50 3e
       0.13346955 0.089741156 -0.039159488 0.20319122
000060 c0 46 48 3e bd 9e 33 be 6c 8a e2 be 42 f7 12 bd
       0.19558239 -0.17541023 -0.44246233 -0.035880335
000070 d1 d1 78 3d f6 eb de 3e 99 66 8b bd 34 c5 39 be
       0.06074697 0.435394 -0.06806678 -0.18141633
000080 f1 5c 8f bd 99 80 0e 3e 46 02 2e 3b 6f 56 7e 39
       -0.07000149 0.13916244 0.0026551648 0.00024255527
000090 97 a7 1e bd 51 27 a5 bd 28 19 35 3d b3 ab e7 3d
       -0.038734045 -0.0806414 0.044213444 0.11312046
0000a0 ab d7 b1 bc 24 af 34 3e 9c 5a 91 bd fc c0 36 bd
       -0.021709284 0.17644936 -0.070973605 -0.044617638
0000b0 6d b8 d9 3c 2e c8 28 bb 81 d1 e7 bd bc ef f1 3b
       0.026577199 -0.0025754082 -0.113192566 0.007383315
0000c0 8f 6f 9f 3e 48 95 82 3c 0f 40 a3 bc b2 f8 47 bd
       0.311398 0.015940323 -0.019928006 -0.04882116
0000d0 28 7b 6e 3a 72 13 23 be 3b ae d5 be 2b 6f 82 bd
       0.0009097331 -0.15925387 -0.4173449 -0.0636886
0000e0 10 74 1a be 44 7c 2c 3c da 3f 3e be cc 51 98 bd
       -0.15083337 0.010527674 -0.18579045 -0.074374765
0000f0 c9 ff 43 bb 6f c8 ba 3c 49 80 b4 be 16 c1 1d 3e
       -0.0029907099 0.022800652 -0.35254124 0.15405688
000100 a3 5b 20 3e 28 c0 78 be 94 36 4e 3e c6 32 1e be
       0.15659957 -0.24292052 0.20138007 -0.15449056
000110 28 7c 5d 3e a7 87 6b bd b3 4a bb bd 0d 68 b3 bc
       0.21629393 -0.057502415 -0.09145107 -0.021900201
000120 87 dc ea be 40 19 f8 3d 7f a7 91 3d 75 d0 8c 3e
       -0.45871374 0.12114191 0.071120255 0.2750279
000130 ed c1 15 bd 62 19 a1 bc 5f f4 6e bc 4d d9 9f 3d
       -0.036561895 -0.019665424 -0.01458463 0.07805119
000140 15 4c b2 bd 2f 08 a6 3d 8d fc 3b be a1 a5 0b be
       -0.08705918 0.0810703 -0.18358059 -0.13637401
000150 5f 74 12 be 56 68 cb bd 90 e7 ff 3d 3e 73 c8 be
       -0.14302205 -0.0993201 0.12495339 -0.39150423
000160 56 d4 19 3d ae 60 eb bd 84 90 84 bd 81 dd 56 3e
       0.037556015 -0.114930496 -0.06472877 0.20982935
000170 49 5c 2e be 94 60 84 3e 84 d0 64 bd d5 b5 80 ba
       -0.17027391 0.25854933 -0.05586292 -0.0009819815
000180 63 88 52 3d 59 b3 17 3d c0 49 c7 3d 8b 3b e3 3e
       0.0513996 0.037036274 0.097308636 0.44381365
000190 40 ea 6d bd 3f 6b 59 bc 5e a8 21 3e b3 09 97 bd
       -0.058084726 -0.013270198 0.15786883 -0.07374897
0001a0 f9 2f 35 3d 9f ee ce be 59 2a d5 3b 65 06 35 be
       0.044235203 -0.40416428 0.0065052924 -0.1767822
0001b0 72 d3 56 3e 6a c1 53 3e a6 d6 01 be d1 70 12 3e
       0.20979097 0.2067925 -0.12679538 0.14300849
0001c0 49 f8 ea 3d 6b e1 ee 3d 53 b2 9c be 12 36 84 3e
       0.11473138 0.11664089 -0.306048 0.25822502
0001d0 4e 33 a1 3e d3 40 85 3e e7 62 c8 3d 75 be d5 3d
       0.31484455 0.2602602 0.09784489 0.104367174
0001e0 59 de 11 3e e4 95 6e be e1 2f fc 3d bc 3c 02 be
       0.14244975 -0.23299366 0.1231382 -0.12718481
0001f0 67 65 80 3e e9 ec 5c 3d 3f 5c 89 3e 13 f9 30 3d
       0.25077364 0.053936873 0.2682819 0.043206286
000200 3c 03 58 3e 74 5c 56 3e 6e 0f 05 be fa fe f2 bd
       0.21094984 0.20933706 -0.12994167 -0.11865039
000210 0a da cf be 25 6e c5 3d a3 61 a3 3d 5d 82 08 3e
       -0.40596038 0.09640149 0.07977607 0.1333098
000220 a4 d0 63 3e fe 0d 64 bd 91 4a 33 be 7d 13 aa 3e
       0.22247559 -0.055677406 -0.17508914 0.33217993
000230 74 25 10 be 86 df 0a bd e1 f8 6c be 09 b4 85 bc
       -0.14076787 -0.033904575 -0.23141815 -0.016321199
000240 e0 c4 89 be e0 5f b1 3c 03 18 0e 3e ad 15 12 3e
       -0.26908016 0.021652162 0.13876347 0.14266081
000250 0b 2b 5b bd 07 7f d9 3d 51 3b a6 bd fb ef 1c bc
       -0.053507846 0.10619932 -0.081167825 -0.0095787
000260 8b 84 b4 3c f7 7b 31 be 35 19 36 be a7 e4 52 be
       0.022035858 -0.17332445 -0.17783053 -0.20595036
000270 36 8c 58 be 41 14 86 bd bb 39 e7 3d d2 35 bb 3d
       -0.21147236 -0.06546832 0.11290308 0.09141125
000280 e4 91 cf bd 0c a7 33 3e 8c 47 04 3d aa c2 ca 3c
       -0.10135248 0.17544192 0.032294795 0.024751026
000290 9c d6 df bd cf 4c 03 3e ec 10 72 be a5 dd 2c be
       -0.10929605 0.12822269 -0.23639268 -0.16881426
0002a0 58 01 00 bd ee f7 58 be d4 88 54 be 61 61 51 be
       -0.03125128 -0.21188328 -0.20755321 -0.20447303
0002b0 77 b4 eb bd a1 93 4e be d7 dc 03 3e 44 78 35 be
       -0.1150903 -0.20173503 0.12877212 -0.17721659
0002c0 a8 4f 93 3d 37 b3 ec bd 70 bc a3 bd 07 ae 61 be
       0.071929276 -0.1155762 -0.07994926 -0.22039042
0002d0 6a 83 d1 bd 67 f5 62 be 93 3a dd bc 9e 8f 18 be
       -0.10230143 -0.22163926 -0.02700547 -0.14898536
0002e0 aa 2c 0f be 78 55 d9 3d 34 71 ee bd 61 c2 7e 3c
       -0.13981882 0.10612005 -0.116426855 0.015549273
0002f0 36 e4 47 bd c2 c7 8e bd 9c 69 a6 3d 7c 2d f6 bb
       -0.048801623 -0.069716945 0.08125612 -0.0075127464
000300 e0 e6 2a 3c f2 60 0b 3e 87 24 94 be 0f 9f b2 3c
       0.010431021 0.136112 -0.28934118 0.02180436
000310 4d df c7 bd 58 c5 8c 3e c1 95 92 bd 11 56 b4 bd
       -0.09759388 0.2749431 -0.071574695 -0.08805478
000320 f4 5e 93 bc ba 85 6b 3e aa df a3 38 8f e6 68 3d
       -0.017989613 0.23000231 7.814106e-05 0.056860503
000330 95 f4 c5 3e cd 2a 3e 3e 2c ba df bd bf 25 3a be
       0.38663164 0.18571015 -0.10924181 -0.18178461
000340 e0 49 29 3d 7b e5 09 3e 42 26 5d be 0e 90 1d be
       0.04133022 0.13466446 -0.21596625 -0.15386984
000350 7c b8 30 3d d7 57 78 3e 55 5a da 3d 5c 05 1a 3e
       0.043144688 0.24252258 0.10661761 0.15041107
000360 42 16 95 3d 46 ad fa bc c1 44 32 be eb 10 a9 3e
       0.07279636 -0.030600201 -0.1740904 0.3302072
000370 1f aa 15 3d 6b 89 18 3e 74 79 c0 3d 29 7a 99 3e
       0.036539193 0.14896171 0.09398165 0.29976013
000380 54 1c 95 be 09 51 95 be 01 61 2b be 52 b4 d1 3d
       -0.29123175 -0.29163387 -0.16736223 0.102394715
000390 bc 39 c7 bc f0 44 86 bd a9 73 55 be 93 0d 36 3d
       -0.024319522 -0.065561175 -0.20844902 0.04444654
0003a0 b3 51 82 3e 06 a5 96 bd 13 40 d4 3d fe b9 33 be
       0.25452957 -0.073556945 0.10363784 -0.17551419
0003b0 6f 6f 49 3e c9 a1 b3 3c 31 9c 12 3d 3a b7 bb bc
       0.19671415 0.021927731 0.035793487 -0.022914518
0003c0 55 0e d2 bd 96 5a 29 3e 7e 13 3a 3d 0e 7e 8a bc
       -0.1025664 0.16538462 0.045428745 -0.01690581
0003d0 36 57 56 3e fd 81 19 be 48 66 85 bd 57 b6 96 3e
       0.20931706 -0.14990993 -0.06513649 0.2943599
0003e0 76 56 70 3d f1 57 4f be 86 f0 b9 be 1c 44 35 bd
       0.058676206 -0.2024839 -0.36316317 -0.044254407
0003f0 ff a5 2e 3e f0 4b 86 3e 29 96 10 be 1e 8c 94 bd
       0.1705551 0.2622981 -0.14119782 -0.07253288
